{"class_name": "Model", "config": {"name": "model_2", "layers": [{"name": "input_4", "class_name": "InputLayer", "config": {"batch_input_shape": [null, 1244], "dtype": "float32", "sparse": false, "name": "input_4"}, "inbound_nodes": []}, {"name": "input_5", "class_name": "InputLayer", "config": {"batch_input_shape": [null, 1244], "dtype": "float32", "sparse": false, "name": "input_5"}, "inbound_nodes": []}, {"name": "input_6", "class_name": "InputLayer", "config": {"batch_input_shape": [null, 1244], "dtype": "float32", "sparse": false, "name": "input_6"}, "inbound_nodes": []}, {"name": "embedding_5", "class_name": "Embedding", "config": {"name": "embedding_5", "trainable": true, "batch_input_shape": [null, null], "dtype": "float32", "input_dim": 14781, "output_dim": 100, "embeddings_initializer": {"class_name": "RandomUniform", "config": {"minval": -0.05, "maxval": 0.05, "seed": null}}, "embeddings_regularizer": null, "activity_regularizer": null, "embeddings_constraint": null, "mask_zero": false, "input_length": null}, "inbound_nodes": [[["input_4", 0, 0, {}]]]}, {"name": "embedding_6", "class_name": "Embedding", "config": {"name": "embedding_6", "trainable": true, "batch_input_shape": [null, null], "dtype": "float32", "input_dim": 14781, "output_dim": 100, "embeddings_initializer": {"class_name": "RandomUniform", "config": {"minval": -0.05, "maxval": 0.05, "seed": null}}, "embeddings_regularizer": null, "activity_regularizer": null, "embeddings_constraint": null, "mask_zero": false, "input_length": null}, "inbound_nodes": [[["input_5", 0, 0, {}]]]}, {"name": "embedding_7", "class_name": "Embedding", "config": {"name": "embedding_7", "trainable": true, "batch_input_shape": [null, null], "dtype": "float32", "input_dim": 14781, "output_dim": 100, "embeddings_initializer": {"class_name": "RandomUniform", "config": {"minval": -0.05, "maxval": 0.05, "seed": null}}, "embeddings_regularizer": null, "activity_regularizer": null, "embeddings_constraint": null, "mask_zero": false, "input_length": null}, "inbound_nodes": [[["input_6", 0, 0, {}]]]}, {"name": "conv1d_5", "class_name": "Conv1D", "config": {"name": "conv1d_5", "trainable": true, "filters": 32, "kernel_size": [4], "strides": [1], "padding": "valid", "data_format": "channels_last", "dilation_rate": [1], "activation": "relu", "use_bias": true, "kernel_initializer": {"class_name": "VarianceScaling", "config": {"scale": 1.0, "mode": "fan_avg", "distribution": "uniform", "seed": null}}, "bias_initializer": {"class_name": "Zeros", "config": {}}, "kernel_regularizer": null, "bias_regularizer": null, "activity_regularizer": null, "kernel_constraint": null, "bias_constraint": null}, "inbound_nodes": [[["embedding_5", 0, 0, {}]]]}, {"name": "conv1d_6", "class_name": "Conv1D", "config": {"name": "conv1d_6", "trainable": true, "filters": 32, "kernel_size": [6], "strides": [1], "padding": "valid", "data_format": "channels_last", "dilation_rate": [1], "activation": "relu", "use_bias": true, "kernel_initializer": {"class_name": "VarianceScaling", "config": {"scale": 1.0, "mode": "fan_avg", "distribution": "uniform", "seed": null}}, "bias_initializer": {"class_name": "Zeros", "config": {}}, "kernel_regularizer": null, "bias_regularizer": null, "activity_regularizer": null, "kernel_constraint": null, "bias_constraint": null}, "inbound_nodes": [[["embedding_6", 0, 0, {}]]]}, {"name": "conv1d_7", "class_name": "Conv1D", "config": {"name": "conv1d_7", "trainable": true, "filters": 32, "kernel_size": [8], "strides": [1], "padding": "valid", "data_format": "channels_last", "dilation_rate": [1], "activation": "relu", "use_bias": true, "kernel_initializer": {"class_name": "VarianceScaling", "config": {"scale": 1.0, "mode": "fan_avg", "distribution": "uniform", "seed": null}}, "bias_initializer": {"class_name": "Zeros", "config": {}}, "kernel_regularizer": null, "bias_regularizer": null, "activity_regularizer": null, "kernel_constraint": null, "bias_constraint": null}, "inbound_nodes": [[["embedding_7", 0, 0, {}]]]}, {"name": "dropout_4", "class_name": "Dropout", "config": {"name": "dropout_4", "trainable": true, "rate": 0.5, "noise_shape": null, "seed": null}, "inbound_nodes": [[["conv1d_5", 0, 0, {}]]]}, {"name": "dropout_5", "class_name": "Dropout", "config": {"name": "dropout_5", "trainable": true, "rate": 0.5, "noise_shape": null, "seed": null}, "inbound_nodes": [[["conv1d_6", 0, 0, {}]]]}, {"name": "dropout_6", "class_name": "Dropout", "config": {"name": "dropout_6", "trainable": true, "rate": 0.5, "noise_shape": null, "seed": null}, "inbound_nodes": [[["conv1d_7", 0, 0, {}]]]}, {"name": "max_pooling1d_5", "class_name": "MaxPooling1D", "config": {"name": "max_pooling1d_5", "trainable": true, "strides": [2], "pool_size": [2], "padding": "valid", "data_format": "channels_last"}, "inbound_nodes": [[["dropout_4", 0, 0, {}]]]}, {"name": "max_pooling1d_6", "class_name": "MaxPooling1D", "config": {"name": "max_pooling1d_6", "trainable": true, "strides": [2], "pool_size": [2], "padding": "valid", "data_format": "channels_last"}, "inbound_nodes": [[["dropout_5", 0, 0, {}]]]}, {"name": "max_pooling1d_7", "class_name": "MaxPooling1D", "config": {"name": "max_pooling1d_7", "trainable": true, "strides": [2], "pool_size": [2], "padding": "valid", "data_format": "channels_last"}, "inbound_nodes": [[["dropout_6", 0, 0, {}]]]}, {"name": "flatten_5", "class_name": "Flatten", "config": {"name": "flatten_5", "trainable": true, "data_format": "channels_last"}, "inbound_nodes": [[["max_pooling1d_5", 0, 0, {}]]]}, {"name": "flatten_6", "class_name": "Flatten", "config": {"name": "flatten_6", "trainable": true, "data_format": "channels_last"}, "inbound_nodes": [[["max_pooling1d_6", 0, 0, {}]]]}, {"name": "flatten_7", "class_name": "Flatten", "config": {"name": "flatten_7", "trainable": true, "data_format": "channels_last"}, "inbound_nodes": [[["max_pooling1d_7", 0, 0, {}]]]}, {"name": "concatenate_2", "class_name": "Concatenate", "config": {"name": "concatenate_2", "trainable": true, "axis": -1}, "inbound_nodes": [[["flatten_5", 0, 0, {}], ["flatten_6", 0, 0, {}], ["flatten_7", 0, 0, {}]]]}, {"name": "dense_7", "class_name": "Dense", "config": {"name": "dense_7", "trainable": true, "units": 10, "activation": "relu", "use_bias": true, "kernel_initializer": {"class_name": "VarianceScaling", "config": {"scale": 1.0, "mode": "fan_avg", "distribution": "uniform", "seed": null}}, "bias_initializer": {"class_name": "Zeros", "config": {}}, "kernel_regularizer": null, "bias_regularizer": null, "activity_regularizer": null, "kernel_constraint": null, "bias_constraint": null}, "inbound_nodes": [[["concatenate_2", 0, 0, {}]]]}, {"name": "dense_8", "class_name": "Dense", "config": {"name": "dense_8", "trainable": true, "units": 1, "activation": "sigmoid", "use_bias": true, "kernel_initializer": {"class_name": "VarianceScaling", "config": {"scale": 1.0, "mode": "fan_avg", "distribution": "uniform", "seed": null}}, "bias_initializer": {"class_name": "Zeros", "config": {}}, "kernel_regularizer": null, "bias_regularizer": null, "activity_regularizer": null, "kernel_constraint": null, "bias_constraint": null}, "inbound_nodes": [[["dense_7", 0, 0, {}]]]}], "input_layers": [["input_4", 0, 0], ["input_5", 0, 0], ["input_6", 0, 0]], "output_layers": [["dense_8", 0, 0]]}, "keras_version": "2.2.4", "backend": "tensorflow"}